S2GAE-main/weight/s2gae-GCN_CiteSeer_um_v1_2_hidd128-0.7-2-256_model.pth (torch, 199439 bytes, 4 tensors)

convs.0.weight f4 [256, 128]
000000 b6 4e 01 be 4c 68 59 bd 10 ef 8f bc 5a ee 48 bd
       -0.12627682 -0.05307798 -0.017570049 -0.049055435
000010 4a 3c 4b bd e4 b7 8c 3d 55 01 80 bc 92 38 f2 bd
       -0.049618043 0.06871012 -0.015625635 -0.11827196
000020 c2 76 13 be 13 99 11 3d 36 d4 1f be 5e c5 19 be
       -0.14400771 0.035546374 -0.15608296 -0.15016696
000030 9f ff 5c 3e 6d ef 10 3e 09 18 d9 bd 9b 09 a5 bd
       0.21581887 0.14153834 -0.106002875 -0.08058473
000040 be 88 ed 3d e3 cd 73 3d 09 d7 f5 bb 89 c7 83 bd
       0.11598347 0.05952252 -0.007502441 -0.06434543
000050 0d 69 24 bd 67 80 08 3e 18 8b 69 3c 46 9d 66 bd
       -0.040139247 0.13330232 0.014254354 -0.05630233
000060 ff bf 16 be 4a 1e 2a bb b7 45 f1 3c 27 a6 16 be
       -0.14721678 -0.0025957995 0.029452188 -0.1471182
000070 8b 23 ff 3c 79 ad 23 be 72 ce 35 3d 9b 3b f5 bc
       0.031144878 -0.15984143 0.044386335 -0.029935649
000080 a9 08 10 bd 56 2d 22 3c d1 2e 0d bd 48 c0 a5 3d
       -0.03516451 0.009898504 -0.034468476 0.08093315
000090 47 20 b8 bd da 4c cc bd 96 f6 e0 bc 1e 59 b3 bb
       -0.089905314 -0.09975596 -0.027461331 -0.00547327
0000a0 14 45 1e bd 40 a9 f4 3d 9f fb f5 bd df 8c 63 3c
       -0.038640097 0.119463444 -0.120108835 0.013888567
0000b0 91 e4 6e 3d f9 66 ca bd 5e 5b a2 bd e2 20 f1 bd
       0.058323447 -0.09882922 -0.07927583 -0.1177385
0000c0 e8 81 f7 3d ec 5b ea bc b4 86 dd bc 0b 38 3b 3e
       0.120853245 -0.028608285 -0.02704177 0.18283097
0000d0 13 20 0b 3d 35 cd 31 3d b5 1c 00 be 31 a5 c1 3c
       0.033966135 0.04340859 -0.12510951 0.02363834
0000e0 e0 66 28 bd 84 b1 ad bd 5b 47 d8 bd 44 15 fa 3d
       -0.041113734 -0.08481124 -0.10560485 0.12211087
0000f0 c7 6a 69 3d 54 1b 1b bd 7b fc 66 bd bb fe 5a bd
       0.056986596 -0.03786786 -0.056393128 -0.053465586
000100 fb 59 3d bd 76 3a af 3d e2 89 4e 3e 25 f1 21 3d
       -0.04622839 0.085560724 0.20169786 0.039536614
000110 21 d5 2b bd 95 68 96 3d 9d 12 9d bd be 4a a8 3d
       -0.041951302 0.07344166 -0.07669566 0.08217381
000120 a6 44 71 bd 43 aa a6 bb 3d 10 95 3c 88 d9 3e bd
       -0.05890336 -0.0050862147 0.01819622 -0.046594173
000130 2d bf 5b bd ce 89 08 3d f4 b8 88 bc 9b be da bc
       -0.053649116 0.033334546 -0.016689755 -0.026702216
000140 7c be 63 bd 88 73 61 3d ba fe 4c bc 04 00 0c 3e
       -0.055601582 0.05504182 -0.012511903 0.13671881
000150 5e 66 9a bd fb 6b bf 3c 26 28 bc 3c 10 bb 06 bd
       -0.07539056 0.023366919 0.022968363 -0.03289324
000160 88 f1 44 3b db 60 77 bd eb 98 ae bd cb ae cb 3b
       0.003005119 -0.060395103 -0.085252605 0.0062159053
000170 77 a5 5b bd 00 5f 02 3c 07 19 91 bc eb 97 e3 bd
       -0.053624596 0.00795722 -0.01771213 -0.111129604
000180 57 76 bf 3c fa 23 d5 3d b1 45 39 bd d6 5e 02 be
       0.023371859 0.104072526 -0.04523248 -0.1273149
000190 10 9c 79 bd bb d2 bf 3c ef 72 88 3d 63 3c 58 bd
       -0.06093985 0.023415914 0.06662547 -0.052791964
0001a0 94 53 ec 3d 0d f1 e6 3d e1 a8 f0 3c 3c 54 3c 3c
       0.11539379 0.112764455 0.029377403 0.011494692
0001b0 9f 97 37 be fb 24 20 be 8c 74 d1 bd e4 50 71 3d
       -0.17928933 -0.15639107 -0.10227308 0.058915034
0001c0 8d 17 91 3d 82 02 7b 3d 5a a1 d0 ba 21 33 f5 3c
       0.0708457 0.06128169 -0.0015917227 0.029931607
0001d0 83 34 6b 3c b3 46 03 3e bf 05 b2 3b 1a 50 ff 3c
       0.0143557815 0.12819938 0.005432814 0.031166125
0001e0 b9 cd 8f 3d 60 d8 4d bd 39 c9 68 3c 4b 28 d6 3c
       0.0702166 -0.05025518 0.0142081315 0.02614226
0001f0 fe 21 74 3c 60 b9 1e be 84 9a ec bd 3d 09 62 3d
       0.0149006825 -0.15500402 -0.11552909 0.05518459
000200 df 72 44 be 4b 2f 83 bc 8c 63 8d bd 8f 31 91 bd
       -0.19184445 -0.016013762 -0.06903753 -0.07089531
000210 9e a6 b7 3d 8f cc a1 bd 6f b9 d8 bd 40 ce 73 bc
       0.089673266 -0.079003446 -0.10582244 -0.014880717
000220 69 aa 9e 3d cb 15 1a bd 83 2d 86 bb d6 70 86 3d
       0.07747347 -0.03761844 -0.004094781 0.065644905
000230 94 47 ef 3d 4d 08 f9 3d b9 ad e4 bd 18 ca e3 bd
       0.11683574 0.121597864 -0.111659475 -0.11122531
000240 f2 d4 f6 3d c6 de 4f bd 40 d1 0b bd b8 52 d8 bd
       0.12052335 -0.050749563 -0.034135103 -0.10562652
000250 11 b8 33 3c 26 b8 ac 3d c6 ed 07 be 1b 92 cb 3d
       0.010969178 0.08433561 -0.13274297 0.09939977
000260 c5 28 11 be 2c 19 9d 3d bb 3a 79 3d 2a 6e bb bd
       -0.14175709 0.07670817 0.060847025 -0.091518715
000270 67 bd a8 bd ac c4 fb bc cf 1f 98 3c 4e 48 0a 3d
       -0.08239251 -0.030733429 0.018569855 0.03376036
000280 04 60 05 bd b2 57 f6 3c 15 34 29 be 29 da f6 3d
       -0.03256227 0.030071113 -0.16523774 0.120533295
000290 05 54 bd 3d ce 66 d8 bd 09 69 d3 bd 45 83 a7 bd
       0.09244541 -0.105664834 -0.10322768 -0.081793346
0002a0 bf e1 31 be 07 c6 96 3d c2 2b a5 bd d4 96 a1 3d
       -0.17371272 0.073619895 -0.08064987 0.07890096
0002b0 ad 2b 70 bd e9 26 fb 3d a9 61 0d be 4c 96 a5 bc
       -0.058635402 0.12263281 -0.13806786 -0.020213269
0002c0 85 58 fd 3d e4 49 df bd 08 33 4b be 20 bc 8e bc
       0.123703994 -0.109027654 -0.19843686 -0.01742369
0002d0 d4 98 23 bd 3b d8 b4 bd 40 5a 24 be 1b f6 56 bc
       -0.03994067 -0.08830305 -0.16050053 -0.0131202
0002e0 31 f8 94 3d 17 8d 27 3c a0 6e 05 bc 7c 00 11 bd
       0.07273901 0.0102265095 -0.008144051 -0.035400853
0002f0 99 22 09 bb 03 a7 e9 bd 97 de 17 be 2e 05 cc bd
       -0.0020925163 -0.11408808 -0.14831005 -0.099619254
000300 4e be 8d bb ec bc 4a bd c6 d8 3e 3c e2 79 b4 bd
       -0.0043256646 -0.049496576 0.0116483625 -0.0881231
000310 03 06 18 3e a6 97 1f 3e ea 24 9c bd c2 52 31 3e
       0.14846043 0.15585193 -0.07624228 0.17316726
000320 96 a2 df 3c 10 58 f8 3c d0 35 87 bd 88 86 91 bd
       0.027299207 0.030315429 -0.06602061 -0.07105738
000330 24 33 77 bd e5 10 0e 3d d8 62 ac 3c a3 75 1e 3c
       -0.060351506 0.03468408 0.021043226 0.0096716015
000340 70 2a 49 bd 83 2c 3c 3d 82 80 e0 3d 3d 47 d7 3d
       -0.049112737 0.045940887 0.10962011 0.105116345
000350 41 e6 6a bb 4d f0 09 be 1b 56 81 bd 7a b2 83 bc
       -0.0035842808 -0.13470574 -0.063152514 -0.016076315
000360 f1 27 a2 bc a7 2d 15 ba da 60 43 3c 0e db 43 be
       -0.019794436 -0.00056907017 0.011924947 -0.19126531
000370 cf b3 83 3d 4c 0c 54 3d 0b 68 fa bb 33 29 d1 bd
       0.0643078 0.05176954 -0.0076417974 -0.10212936
000380 b8 d8 88 bd 43 3f 18 3e 0e 16 8d 3d e6 98 9a bd
       -0.06681961 0.14867882 0.06888972 -0.07548694
000390 0f 2b d9 bd 5c af 01 3e f5 29 cb bd 28 be ab bd
       -0.10603916 0.1266455 -0.09920112 -0.08385879
0003a0 b2 18 02 bd cf ed d6 3c f5 4c f3 bc 59 2f 14 be
       -0.031761833 0.026236443 -0.029699782 -0.14471187
0003b0 72 c6 13 be fe 3a 27 be ee b9 d5 3b 05 30 fb 3d
       -0.1443117 -0.16331097 0.0065224087 0.122650184
0003c0 6e 59 12 be f0 af 77 3d 0d 50 c7 bb 5c 8d 9a 3c
       -0.14291927 0.06047052 -0.006082541 0.018866234
0003d0 3a 29 2e 3c e9 77 2d 3d 16 b0 a8 3d 9f a7 fa bd
       0.010629946 0.042350683 0.08236711 -0.122390024
0003e0 fd 19 e1 bb 7f 06 d9 bd fa 65 1b be 59 88 52 bc
       -0.006869553 -0.10596942 -0.1517562 -0.012849891
0003f0 39 14 25 be ef 5b 42 bd 8b 23 06 be 33 41 10 bc
       -0.16120996 -0.047450956 -0.13099496 -0.008804607

convs.0.bias f4 [128]
000000 6c b7 a2 bd a5 94 a6 bd cb 9d d4 bd 12 d2 26 bd
       -0.07945141 -0.081338204 -0.10381659 -0.040727682
000010 f0 25 7a 3d 9c 65 c2 3d 17 99 b5 3d 93 eb 1c bd
       0.061071336 0.09492037 0.0886709 -0.0383106
000020 24 c8 57 bd 59 83 3f bd ae ac 8e 3c 73 53 01 bd
       -0.052681103 -0.046756122 0.017416324 -0.031573724
000030 cf dd d2 3d a6 ae f6 3d f3 52 86 bd b9 05 10 bd
       0.10296213 0.1204503 -0.0655879 -0.035161708
000040 8c aa 90 bd de 25 c3 bc b2 89 2e 3d 87 e4 35 bd
       -0.07063779 -0.023821767 0.042611785 -0.044407394
000050 6a 46 0a 3c c3 7c 6a 3d ee 20 85 bd ed 61 b8 bd
       0.00843964 0.05724789 -0.065004215 -0.09003053
000060 fb bf 39 bd 63 63 bf bd e6 b7 fc bd 6a e6 c6 bc
       -0.045349102 -0.093451284 -0.12339763 -0.024279792
000070 b8 1c 6c bd de b1 87 bd d9 21 73 3d 16 4c a5 bd
       -0.057644576 -0.06625722 0.05935845 -0.08071153
000080 43 0b 52 bd 3d c2 5e bd b4 4b 38 ba ff 40 ed 3d
       -0.05128027 -0.05438446 -0.00070303236 0.11584663
000090 57 e5 7c bd a1 8d 11 bd 81 fc 10 bd ef 56 54 3d
       -0.061742153 -0.03553546 -0.035397056 0.05184072
0000a0 b7 1f 8d bd 2c c5 0b 3d fb 20 27 bd 28 d2 37 bd
       -0.06890815 0.034123585 -0.040802937 -0.044878155
0000b0 5f ba 93 bd 3e 68 66 bd 26 97 36 bd ba 29 af bd
       -0.07213282 -0.056251757 -0.04457774 -0.085528806
0000c0 4f c2 a7 bd 34 b0 2a bb ac a5 5e bc fb 4d 98 3d
       -0.08191358 -0.0026044967 -0.013589304 0.074367486
0000d0 95 e5 84 bc d0 19 b8 3d e5 45 98 bd 1e 7c 79 bd
       -0.016222754 0.08989298 -0.07435206 -0.060909383
0000e0 40 92 c4 b9 7e 3c 94 bd 45 12 bf bd c2 56 57 3c
       -0.00037492998 -0.072381005 -0.093296565 0.013143243
0000f0 2e 5a 0e 3e 11 21 f2 bd 14 c8 ff bc 75 81 42 bd
       0.13901588 -0.11822713 -0.031223334 -0.04748674
000100 51 64 a9 bd b3 bc 02 3e a8 e3 d3 3d fc 8e 85 bd
       -0.08271087 0.12767296 0.10346156 -0.06521413
000110 cc 78 87 3d 71 1f d0 3d 12 a7 10 bd a4 ef f8 3d
       0.06614837 0.10162247 -0.03531558 0.12155083
000120 12 c9 e2 3d 5b 05 c0 3d b7 06 2d 3b bc b4 0f bd
       0.11073507 0.093760215 0.0026401707 -0.03508447
000130 9d 18 1f 3c 1d 0c 16 bd 27 d9 91 bd cc 76 ba bd
       0.009710458 -0.036632646 -0.07121497 -0.0910469
000140 d7 b7 1c bd f3 9b 52 bd dc bf 83 bd f3 82 84 3d
       -0.03826126 -0.051418256 -0.06433079 0.06470289
000150 67 05 3e bd 1c 00 91 bc f7 cc b4 bb 4e 9c 35 bd
       -0.04639187 -0.017700247 -0.005517598 -0.044338517
000160 db a2 18 bd dd 32 8b bd a7 ec 77 bd b0 22 83 bd
       -0.037264686 -0.06796811 -0.060528424 -0.064031005
000170 8a 82 3b bc f9 29 6c bd 87 26 87 bc fd e7 0e 3d
       -0.011444697 -0.057657216 -0.016497863 0.03488921
000180 13 e4 ef 3c f2 42 7a 3d a6 61 2d bd 43 fa 7f bd
       0.029283559 0.061099 -0.042329453 -0.062494528
000190 38 37 85 bd ac 20 40 3d 17 d0 ab 3d d9 19 61 bd
       -0.06504673 0.04690616 0.08389299 -0.05495629
0001a0 cc 29 f1 3d 9b e3 bf 3d 1b 92 51 bc 1c c0 92 3c
       0.1177555 0.09369584 -0.012791182 0.01791387
0001b0 16 16 76 bd 36 10 96 bd 6e 1b b4 bd 77 99 0f bd
       -0.060079657 -0.07327311 -0.08794294 -0.035058465
0001c0 26 72 2f bd b1 5d d9 3d eb 7d 8a 3d 32 87 41 bd
       -0.04283347 0.10613573 0.06762298 -0.047248073
0001d0 f4 b6 99 bd 6d ab a4 3d e0 d7 9a 3d 59 56 86 bd
       -0.07505599 0.080405094 0.07560706 -0.06559438
0001e0 15 48 14 3d 34 90 5d bc 0e 02 4f 3c ab 73 6f 3d
       0.036201555 -0.01352315 0.012634767 0.05845992
0001f0 82 d8 97 bb 76 05 8d bd 6c 22 81 bc 40 ed 56 bd
       -0.004633964 -0.06885807 -0.015763484 -0.052472353

convs.1.weight f4 [128, 128]
000000 66 df 08 bd 5a ff fe bd 3d a9 a6 bd 4a ea 80 3d
       -0.033416174 -0.12451048 -0.081377484 0.06294687
000010 61 6c ba bc ef 60 49 3e 81 0e c5 bd 4e d6 a4 bd
       -0.022756757 0.19665883 -0.09621907 -0.08048688
000020 77 0e 11 3d 80 0f 4e 3e 07 fd a8 bc 28 1e 12 3e
       0.035414185 0.201231 -0.020628465 0.14269316
000030 11 1a dd bd 43 1b dc 3d b8 c1 85 bc cd 0e 2f bd
       -0.107959874 0.10747387 -0.016327724 -0.042738724
000040 f0 db 52 3e fa 46 ac bd 56 a0 a6 3d f0 6b 57 bd
       0.20591712 -0.08411975 0.081360504 -0.05259317
000050 e1 2d 47 3e 99 a3 13 3e 08 fe 28 3e 11 f6 95 bd
       0.19451095 0.14417876 0.16503155 -0.07322324
000060 83 32 c5 3b 84 a9 9b 3d 57 93 e3 bc 5c 75 f2 bc
       0.0060179844 0.07600692 -0.027780218 -0.029596977
000070 e1 d1 83 bd 46 98 2f 3e b8 ad 9a bc 7f 06 03 3d
       -0.064365156 0.17147931 -0.018881664 0.031988617
000080 fa 25 7d bd d6 8a 15 3e 2e 1f 12 be af d4 fe bd
       -0.061803795 0.14603743 -0.14269707 -0.1244291
000090 be 99 c2 3c 73 fa 82 3d f6 ef 9f ba 4b ff ce bc
       0.02375495 0.06395426 -0.0012202251 -0.025268218
0000a0 e7 b6 b3 3c 5a 0b 29 3d 37 ad d3 3c fc 1f 11 3e
       0.0219378 0.04127059 0.025839431 0.14172357
0000b0 4f 85 b0 3c 57 be 21 3e d2 30 1f 3d a0 89 a1 bc
       0.021547941 0.15795265 0.038864918 -0.019718945
0000c0 51 5e 86 bc f0 9e dc 3d 51 0f 39 bd 1b e6 61 3e
       -0.016402395 0.107725024 -0.045180622 0.22060435
0000d0 3a 4a 85 3d a8 45 f3 3d c9 6a 6e 3b e5 cb 7d 3d
       0.06508298 0.1187852 0.0036379567 0.061962027
0000e0 12 32 ec 3d d6 cb 30 3e 14 32 ad bd 75 aa 31 3e
       0.11532988 0.17265257 -0.08456817 0.1735018
0000f0 a5 75 0b 3e 98 13 b5 bd 8b 4c dc bb 40 5c 8f 3d
       0.13619097 -0.08841628 -0.006722992 0.07000017
000100 4d 71 43 bd 32 14 b7 3d 86 12 47 be 3d 47 c8 3d
       -0.047715474 0.08939399 -0.1944066 0.097792126
000110 0b 33 c1 3d 95 8f 1c be b3 64 5a 3e 33 84 de 3d
       0.09433564 -0.15289147 0.21327476 0.10865059
000120 73 96 e1 3d cd 0a 56 3e 6d 3c b1 3d 38 51 97 bd
       0.11015024 0.20902558 0.086541034 -0.07388538
000130 45 df 85 ba 3f 97 4f 3b 40 99 e0 bd 12 6c 96 3d
       -0.0010213634 0.0031675843 -0.1096673 0.073448315
000140 9c 86 f3 bd 3d bd a9 bd 94 45 a6 bd 2e 2c 21 3e
       -0.11890909 -0.082880475 -0.0811874 0.1573951
000150 37 1b 12 3e 66 82 42 bd 41 8c 94 bb 48 1b f1 3c
       0.14268194 -0.04748764 -0.004533321 0.029431954
000160 5f bc 14 be 3d b2 04 bd 76 6f 76 3d c5 e8 e8 bc
       -0.14524983 -0.032396544 0.06016489 -0.028431306
000170 51 0b c9 3d 3e f3 01 be 15 be 8b bc fc a5 1c 3e
       0.098166116 -0.12690446 -0.017058412 0.15297693
000180 34 24 43 be 38 50 25 be 4f 83 90 3c b6 cb 34 3d
       -0.19056779 -0.16143882 0.017640738 0.044139586
000190 ea 8b 95 3d f7 8d a0 bb 2c 40 4e 3d b9 5d bf 3a
       0.07302077 -0.004899736 0.050354168 0.0014600075
0001a0 36 c9 89 3a 6a 48 e6 3c e1 45 e4 bb 3b 3d 57 3d
       0.0010512236 0.028110702 -0.006966338 0.05254863
0001b0 57 76 d6 3d 6f b1 3e 3e 39 e5 e6 bc fc 62 6d bd
       0.1047179 0.18622373 -0.028185474 -0.057955727
0001c0 6d 35 c3 bd 37 ed b3 3d ec 07 ac 3d 5f 88 ca 3c
       -0.095316745 0.087854795 0.083999485 0.02472323
0001d0 99 82 0b 3e fd 49 2a 3d 35 70 85 bc 8b 3c 8f 3c
       0.13624038 0.041574467 -0.016288856 0.017484924
0001e0 7b 6c ef 3c b0 08 16 3e ef bb f9 bc 46 dc a3 3d
       0.029226532 0.14651752 -0.030485122 0.08000998
0001f0 e8 89 2f 3e 50 24 d0 3d a2 6c 1d 3d 2c 56 58 bd
       0.17142451 0.10163176 0.03843368 -0.052816555
000200 35 75 14 be 8c 0f 95 bd 38 b0 6e 3d df 92 6a bd
       -0.14497836 -0.07278356 0.058273524 -0.057268973
000210 45 b3 6b 3d 07 e7 2a 3e cf 43 23 3e 6c b3 be bc
       0.05754401 0.16689692 0.15943836 -0.023278914
000220 46 4c d3 bb b4 b6 44 3e 13 a1 46 3e 71 50 00 bd
       -0.0064483015 0.1921032 0.19397382 -0.031326715
000230 23 57 af bd 95 08 4f 3c 2d de a4 3c df ff 25 3e
       -0.08561542 0.012636323 0.020125473 0.16210888
000240 70 63 ac bd 12 cd c1 bd b3 a2 fc 3c c9 cc 5c 3d
       -0.08417404 -0.09462942 0.0308393 0.053906236
000250 df 38 1b bc c4 bd a0 3c e2 94 28 bd 3c ba ca bd
       -0.009474008 0.019621737 -0.04115761 -0.09898803
000260 a7 5e 9e bb a7 6f 9e 3d 9b 13 fe 3c 9c 2f 2a 3e
       -0.004833061 0.0773614 0.031015208 0.16619724
000270 b2 93 ef 3c ff cd bf 3d e8 2e 78 bd db 71 48 3e
       0.029245231 0.093654625 -0.06059161 0.19574682
000280 f6 f1 20 bd a1 35 83 3d a4 6a d0 3c c6 88 08 3d
       -0.039293252 0.06406713 0.025441475 0.033333562
000290 bc f4 8d 3d 8b 59 92 bd f1 f0 0b 3e 9a f8 a9 bd
       0.06931445 -0.07145985 0.1366613 -0.0829937
0002a0 5c d6 13 3e 1f 81 6b 3d 4d 15 10 3d 05 a7 bd 3d
       0.1443724 0.057496186 0.035176564 0.09260372
0002b0 5e e7 71 3d 77 0e 4d 3d ea 0d 88 bd c1 4c 27 be
       0.05905854 0.050062623 -0.06643279 -0.16337873
0002c0 dc c4 f1 3c fe b0 37 be aa 2b 9d 3d 94 9f 10 3d
       0.029512815 -0.17938611 0.07674344 0.035308436
0002d0 20 d7 99 3d 1a 8f ab bc 03 d2 82 3d aa a4 6e 3d
       0.07511735 -0.02094226 0.06387713 0.058262505
0002e0 aa a6 08 be a8 1a 51 3d 80 4e f1 bd 8c 78 cc 3d
       -0.13344827 0.051050812 -0.11782551 0.0998393
0002f0 f6 a3 4e 3e 02 fb b3 bd 29 69 9c 3d b8 4f 04 be
       0.20179734 -0.0878811 0.07637245 -0.12921035
000300 4f 24 c4 3d 5a 4f f2 bc 4f 7e bc bd c0 3a 3c 3d
       0.09577238 -0.029578853 -0.09203779 0.045954466
000310 e8 15 1e be 81 94 49 be 87 39 40 3e 32 b1 5c bc
       -0.15438044 -0.19685556 0.18771945 -0.013469981
000320 2a c0 b4 3c 2a 67 61 3d 32 e2 94 bd f7 b0 a1 bb
       0.022064287 0.055030026 -0.07269706 -0.004934426
000330 cc ce ae 3d 07 9a b3 3d 39 f9 0a bd b0 8f b0 bc
       0.08535537 0.08769613 -0.033929083 -0.02155289
000340 5e 69 6d 3d 3e e2 88 bc 55 5a 04 be b0 f9 d5 3d
       0.057961814 -0.016709443 -0.12925084 0.10448015
000350 c9 98 5f 3c 9a d4 3f 3d ff 76 c9 bd ea f5 e6 bc
       0.013647267 0.046833612 -0.0983715 -0.028193433
000360 dc d7 1d be 06 28 22 be c3 38 69 bd b0 11 c2 3d
       -0.15414375 -0.1583558 -0.056938898 0.0947603
000370 85 d5 73 bd 92 31 53 3b 61 6d 5d 3d fa db 60 3d
       -0.0595298 0.003222559 0.05405939 0.054897286
000380 4b 53 85 3d f6 8f c2 bc 09 9d af 3d 00 f6 3d 3e
       0.065100275 -0.023750287 0.08574874 0.18550873
000390 98 ef a3 bd 8d 66 2e 3c 99 8d 20 3d be 43 91 3d
       -0.08004683 0.010644567 0.039197538 0.07092999
0003a0 95 69 00 3e d7 00 29 be 8e 86 78 bd 03 aa 99 bd
       0.12540276 -0.16504227 -0.060675196 -0.0750313
0003b0 22 07 52 3e 7f 05 33 bd ba c3 63 bd f2 6c 35 be
       0.20510533 -0.043706413 -0.05560658 -0.1771734
0003c0 45 57 06 3e 79 3c 95 bd 16 d8 3a bd d1 a6 53 bd
       0.13119228 -0.07286925 -0.04561623 -0.05167276
0003d0 24 cc 94 3d dc 28 2d 3d e5 7e c8 3d a6 e0 af bd
       0.07265499 0.042275295 0.09789828 -0.0858777
0003e0 68 2f 02 be 20 92 0e bd 99 f6 8b 3d 1e 98 85 bd
       -0.12713397 -0.034807324 0.06834144 -0.06523155
0003f0 43 4c 1e 3d 02 d0 a9 bd 65 88 94 3d b8 22 56 bd
       0.038646948 -0.082916275 0.07252578 -0.052279204

convs.1.bias f4 [128]
000000 0e 34 fd 3c 78 d1 83 bc 02 b7 8d bd bd 7c 26 3e
       0.03090861 -0.016091093 -0.069196716 0.16258521
000010 52 b9 af bc 9a 8b eb 3c cb 91 11 3c 08 14 28 3e
       -0.021450672 0.02875309 0.008884857 0.16413891
000020 fc a1 21 3d f8 7a 41 3c 71 17 fd 3c 77 cb c4 3d
       0.03946112 0.011809103 0.030894967 0.0960912
000030 85 6b ce 3b 16 d0 f0 3b dd 22 4e bd 56 d0 03 bd
       0.0062994384 0.0073490245 -0.050326217 -0.032181107
000040 5f 55 66 3d a3 51 02 bc 87 cc f9 3d 2d ad 1d 3d
       0.05623376 -0.007954034 0.121972136 0.03849523
000050 f5 81 50 3c 26 74 ae 3d c3 94 f0 bc ce 74 3c 3e
       0.012726297 0.08518247 -0.02936781 0.18403932
000060 d8 cd 12 bd 61 32 0c bd 2d 14 03 3d 2a 4d 08 bd
       -0.03584084 -0.034227733 0.032001663 -0.033276714
000070 4a c9 31 3e 21 81 a2 3c d9 a5 65 3d a1 6b 2f 3d
       0.17361942 0.019836964 0.056066368 0.042827252
000080 7a e8 88 bc ed 92 18 3e 95 bc 98 3c 9a af 6b 3d
       -0.016712416 0.14899798 0.01864461 0.057540514
000090 eb 75 b9 3d ae 19 01 3d 85 a0 9c bc ff d8 c6 3d
       0.09055694 0.03151863 -0.01911951 0.097093575
0000a0 ef 1c f8 bc a8 97 5d 3e e1 e4 dc 3d ce e4 e9 3d
       -0.030287234 0.21639884 0.10785843 0.11420594
0000b0 1b d7 32 3e c4 05 b4 3d c7 41 0b 3d c4 e8 9b bc
       0.17464869 0.08790162 0.033998277 -0.01903189
0000c0 a7 cc a7 3d 40 c8 10 3c f6 27 c8 3d ee 09 ce bb
       0.08193331 0.008836806 0.09773247 -0.006287805
0000d0 c2 ed 0b bd 53 28 07 bd bf 60 75 3b 91 c6 c4 3d
       -0.03416229 -0.03299744 0.0037441698 0.09608186
0000e0 3a 9a 56 bd 3b e9 45 bc bd ee 03 3e 72 f6 7a 3d
       -0.052393176 -0.012079532 0.1288404 0.061270185
0000f0 38 66 2c 3e a1 9a 16 3e f2 96 04 bb 2e 19 5e bd
       0.16835868 0.14707424 -0.0020231572 -0.054223232
000100 52 3a 6e bd df 70 69 3c 66 31 7d bd e6 4c c6 3d
       -0.058161087 0.014248102 -0.06181469 0.09682636
000110 eb 03 ff 3d 07 73 ca bd ce 20 a2 3d 59 09 04 3b
       0.12451919 -0.09885221 0.07916413 0.0020147173
000120 b2 a0 ff 3c c2 34 c2 3b 5a f9 1e 3e 44 a9 fb 3d
       0.031204555 0.0059266994 0.15524808 0.12288144
000130 25 fc 22 bc 6b 4b be 3d f5 1d fe 3d 4a 65 a8 3d
       -0.009947811 0.092917286 0.124080576 0.08222444
000140 68 0a bb 3d a1 c1 89 bd d9 47 b7 3d 2f 9c 92 bd
       0.09132844 -0.06726385 0.08949251 -0.07158696
000150 8e 6e 9d bc ee 74 a4 bb 60 7a 3a bd 52 51 64 3c
       -0.019217756 -0.005018822 -0.045526862 0.013935404
000160 78 9f 30 bd b3 c4 64 bd a6 b3 69 bd ef cd 01 bd
       -0.04312083 -0.05585165 -0.05705609 -0.031690534
000170 ab 0e bb bc d2 21 8c bd 5c 57 6b 3c d5 95 20 3e
       -0.022834143 -0.06842388 0.01436409 0.15682156
000180 c7 97 e1 bd 15 7d 73 bc 1f 91 c5 3b d4 dd 81 3e
       -0.11015277 -0.014861365 0.0060292627 0.25364554
000190 50 66 77 bd f7 f7 db 3d eb df a9 3d a0 72 e6 3c
       -0.060400307 0.10740655 0.08294662 0.02813083
0001a0 6b 54 8e bd 35 ea 1c bd 9e 17 3d bd 8f 36 e2 bc
       -0.06949695 -0.038309295 -0.0461651 -0.027613906
0001b0 68 27 70 bd 29 73 09 ba 16 fa 3e 3e 55 91 23 3e
       -0.05863133 -0.00052432955 0.18650088 0.15973409
0001c0 f1 07 6d bd 6a 40 b4 bd c5 39 88 3d 8b eb 67 bd
       -0.0578689 -0.088013485 0.06651644 -0.056621116
0001d0 b0 89 33 3e 7d 27 c8 3d 93 50 28 3e 3f c2 1a 3e
       0.17532992 0.09773157 0.16436987 0.15113162
0001e0 d1 77 87 bd d1 68 3f 3c 02 de f9 3c 52 4d 06 bd
       -0.0661465 0.011682705 0.03050137 -0.032788582
0001f0 44 f7 59 3e 7a 71 51 bd 6c 02 eb 3d 86 aa 6e bc
       0.2128573 -0.05113361 0.11475071 -0.014567023
