S2GAE-main/weight/s2gaeGCN_CiteSeer_um_v1_2_hidd128-0.7-2-256_pred.pth (torch, 528143 bytes, 3 tensors)

lins.0.weight f4 [256, 512]
-0.07450465 0.03351621 -0.038660828 0.0075962464 -0.110750176 -0.19108619 -0.046778284 -0.037553836
0.011362772 -0.058646783 0.051325504 0.023619024 -0.08840533 -0.11691226 -0.06364922 -0.04022639
-0.0016131283 0.075848065 -0.044363383 -0.016463924 0.07898791 -0.010366029 -0.04175149 -0.059657138
0.02689679 -0.0652149 -0.022025902 -0.05977639 0.005199858 -0.019615926 0.09433842 0.05869844
-0.08029522 0.0023636457 0.14067443 -0.02296074 -0.00225848 0.0070421332 -0.072917886 -0.061164193
0.03825724 -0.03072551 0.0072886236 0.033074107 0.0678337 -0.009999643 0.0048761265 -0.07190715
-0.006848572 -0.07894717 0.06636741 -0.0202012 -0.00019111941 -0.043508656 0.04521225 -0.010103449
-0.05794114 -0.031740393 0.0087723425 -0.12452776 -0.000611754 -0.06939834 -0.04316226 -0.034696758
-0.09652613 -0.08501969 -0.067630105 -0.057155658 -0.096844666 -0.10889622 0.03501032 -0.095852174
0.055889998 -0.089656904 0.050886624 -0.052945096 -0.01268799 -0.049800422 0.056641627 -0.00076410564
-0.008666388 0.09527315 -0.06714152 -0.08047565 -0.037933543 -0.0412992 0.048921783 -0.052601904
-0.046667844 -0.07879351 -0.02559136 0.010664032 -0.053936526 -0.015229307 0.051527265 -0.0035117315
-0.1598924 0.0077441037 -0.05827408 -0.056278918 0.08426656 -0.00063543377 -0.079336084 -0.060977045
-0.004614945 -0.13670258 -0.014763892 0.06849146 0.029049639 0.0060967878 0.00298229 -0.06928687
-0.044976026 -0.0016952504 0.0036181347 -0.0854225 -0.04978975 -0.07592328 -0.053905375 -0.05408702
-0.12008217 0.044899028 -0.07400983 -0.17214116 -0.06483546 0.014537441 -0.050098244 0.012185421
-0.035423037 0.022392435 -0.053529304 0.14883727 -0.05503557 -0.07507924 -0.020219374 0.10318375
-0.12233192 -0.07798442 -0.0505865 0.023749635 0.119832635 -0.038084798 -0.019721521 -0.037206735
-0.061482213 -0.03130856 0.08990931 -0.05746796 -0.0983118 0.14886495 0.082822576 -0.014944496
0.04582204 -0.0776189 -0.040541276 -0.08450039 0.10401433 -0.023752179 -0.06196589 0.09087017
0.01393005 -0.14080258 -0.034225605 -0.060535423 -0.083062336 -0.06902935 0.053584367 -0.048455536
-0.048077255 0.10819784 -0.059001606 0.050958242 0.02603742 -0.057084966 0.02114156 -0.05311302
-0.0821867 0.012074106 0.036376994 -0.05492474 0.024186254 0.07132717 -0.03121952 -0.06469498
0.046176534 -0.004669317 -0.10933441 -0.121967226 -0.008623688 -0.07523347 -0.03931796 -0.05343848
-0.0712381 -0.01672067 -0.015007293 -0.0870738 -0.003114167 -0.068894036 0.051494952 -0.015719175
-0.10426947 -0.04329527 0.056014985 0.06413716 0.11934677 -0.024867008 0.022472361 -0.049207527
-0.080959626 0.046894986 -0.11440908 0.062056556 -0.0052934974 0.05704939 0.042562164 -0.024342567
-0.0285537 0.043542717 -0.060114995 0.03113807 0.03140679 -0.09588327 -0.027426895 0.072226614
-0.009288498 0.24125105 -0.033491638 -0.031538807 0.015853444 -0.17270775 0.10499226 -0.06604404
0.15800242 -0.06630451 -0.016798448 -0.10474015 -0.032762133 -0.051103286 -0.05104443 -0.057036486
0.034840036 0.06597511 -0.12829481 -0.015157158 -0.09584659 0.0069892537 0.16546147 0.05541573
0.08128576 -0.01988656 0.1643557 0.014459147 -0.087807596 -0.035260636 -0.059851706 -0.068323836
00000000: e595 98bd 4b48 093d d15a 1ebd efe9 f83b
00000010: fdd0 e2bd 19ac 43be 969a 3fbd 0dd2 19bd
00000020: ec2a 3a3c 9c37 70bd b13a 523d af7c c13c
00000030: db0d b5bd b26f efbd 865a 82bd 6dc4 24bd
00000040: 9b6f d3ba 3b56 9b3d 61b6 35bd 5adf 86bc
00000050: 6ac4 a13d 47d6 29bc 9c03 2bbd 0b5b 74bd
00000060: a856 dc3c 648f 85bd aa6f b4bc 17d8 74bd
00000070: 9263 aa3b 94b1 a0bc 8034 c13d c76d 703d
00000080: d271 a4bd 65e7 1a3b f50c 103e 2918 bcbc
00000090: 0203 14bb b2c1 e63b f955 95bd 4e87 7abd
000000a0: a0b3 1c3d 11b4 fbbc 68d5 ee3b b778 073d
000000b0: 65ec 8a3d 8bd5 23bc eac7 9f3b 0e44 93bd
000000c0: fc69 e0bb 0eaf a1bd a3eb 873d fd7c a5bc
000000d0: 3a67 48b9 2236 32bd 7b30 393d f088 25bc
000000e0: b053 6dbd 3702 02bd dfb9 0f3c 6908 ffbd
000000f0: 1e5e 20ba b820 8ebd e9ca 30bd 301e 0ebd
00000100: 7eaf c5bd ce1e aebd a781 8abd 0d1c 6abd
00000110: 7f56 c6bd fb04 dfbd fb66 0f3d 254e c4bd
00000120: e9ec 643d 0a9e b7bd 7e6e 503d f5dc 58bd
00000130: 4ae1 4fbc 87fb 4bbd 0d01 683d 434e 48ba
00000140: 77fd 0dbc 921e c33d 7e81 89bd 6bd0 a4bd
00000150: 3460 1bbd 5a29 29bd 3562 483d 1875 57bd
00000160: c826 3fbd 7e5e a1bd f9a4 d1bc 31b8 2e3c
00000170: 8cec 5cbd 5884 79bc 410e 533d 1425 66bb
00000180: d5ba 23be 40c2 fd3b cdb0 6ebd b984 66bd
00000190: f293 ac3d 3d93 26ba f57a a2bd 11c3 79bd
000001a0: f738 97bb c3fb 0bbe 40e4 71bc 4045 8c3d
000001b0: 82f9 ed3c 90c7 c73b 8672 433b 46e6 8dbd
000001c0: c838 38bd 2a33 deba 3a1e 6d3b fef1 aebd
000001d0: 56f0 4bbd aa7d 9bbd e2cb 5cbd 5a8a 5dbd
000001e0: a4ed f5bd 0be8 373d 7792 97bd c645 30be
000001f0: 74c8 84bd 722e 6e3c d133 4dbd 5ca5 473c
00000200: bf17 11bd 5770 b73c 8b41 5bbd cc68 183e
00000210: fa6c 61bd 25c3 99bd 1aa3 a5bc 0052 d33d
00000220: 2889 fabd 4cb6 9fbd ca33 4fbd 988e c23c
00000230: d06a f53d cefe 1bbd 078f a1bc 1766 18bd
00000240: c6d4 7bbd 683d 00bd 5f22 b83d 8663 6bbd
00000250: b257 c9bd 0e70 183e e29e a93d c2d9 74bc
00000260: e4af 3b3d a8f6 9ebd 9c0e 26bd 8a0e adbd
00000270: 7705 d53d ee93 c2bc f2cf 7dbd 241a ba3d
00000280: dd3a 643c 8d2e 10be 2630 0cbd fef3 77bd
00000290: 961c aabd 435f 8dbd 487b 5b3d 5079 46bd
000002a0: a8ec 44bd d496 dd3d abab 71bd 97b9 503d
000002b0: 6d4c d53c edd1 69bd 1131 ad3c 0a8d 59bd
000002c0: 8051 a8bd 79d2 453c 0b00 153d c4f8 60bd
000002d0: 4022 c63c fb13 923d 14c0 ffbc cd7e 84bd
000002e0: 9b23 3d3d 1201 99bb b8ea dfbd f4c9 f9bd
000002f0: 5e4a 0dbc 0114 9abd df0b 21bd 4fe2 5abd
00000300: 48e5 91bd c9f9 88bc 26e1 75bc c053 b2bd
00000310: 0d17 4cbb 5118 8dbd 5fec 523d 80c5 80bc
00000320: 3b8b d5bd 6256 31bd f86f 653d 585a 833d
00000330: 146c f43d e5b5 cbbc f517 b83c d58d 49bd
00000340: 29ce a5bd f514 403d 4f4f eabd 042f 7e3d
00000350: 1375 adbb 9fac 693d aa55 2e3d 106a c7bc
00000360: 73e9 e9bc d959 323d 243b 76bd 4415 ff3c
00000370: 68a4 003d 735e c4bd 5eae e0bc 8ceb 933d
00000380: c92e 18bc 840a 773e 872e 09bd d62e 01bd
00000390: 15df 813c 4dda 30be 2f06 d73d 1942 87bd
000003a0: 63cb 213e a9ca 87bd e69c 89bc 0182 d6bd
000003b0: 9631 06bd ae51 51bd f713 51bd 179f 69bd
000003c0: 6db4 0e3d f51d 873d b75f 03be ba55 78bc
000003d0: 384b c4bd 1c06 e53b bb6e 293e 9bfb 623d
000003e0: 2679 a63d 24e9 a2bc dc4c 283e 0fe6 6c3c
000003f0: 78d4 b3bd 756d 10bd 1027 75bd 5eed 8bbd

lins.0.bias f4 [256]
0.18238656 0.1703072 0.05405618 -0.06976596 -0.007512567 -0.021660976 -0.023385523 -0.011444228
-0.09204042 0.0111019565 -0.12121626 0.101792105 0.19298063 -0.085264914 -0.023702342 -0.101674944
0.02569807 -0.13015635 0.005900045 0.05658702 0.23878257 0.14132676 -0.09578583 -0.0511449
0.21197577 0.13703644 -0.12251033 -0.01177437 0.19294997 -0.08470169 0.110134184 0.14734586
0.16598748 -0.021639697 -0.011679661 -0.05049217 -0.008390638 0.18158752 0.18681586 -0.011520918
0.07795126 -0.15074055 0.025345132 0.0034325465 0.06530696 0.0039484273 -0.053479295 -0.05635015
-0.054222472 0.21008635 0.12575239 0.06946478 -0.104717694 -0.05696927 0.17113227 0.051153783
-0.14805993 -0.026452787 -0.02080008 -0.098794796 0.2110756 -0.051230185 0.06345715 -0.056942724
0.0013374588 -0.05792415 -0.0005596331 -0.07903888 -0.0077931904 0.15624909 -0.040855475 -0.039070003
0.14989014 -0.06350993 0.0051220413 0.11965274 -0.043638486 0.22662622 0.15152591 0.16028646
0.1921405 0.00466153 -0.018215531 -0.010046607 0.23115262 -0.16046803 -0.10956264 0.013763793
-0.013655751 -0.0029667807 -0.040819593 0.08745442 -0.05135221 -0.07200017 -0.028536504 -0.080698945
-0.05301874 -0.09216581 0.19088054 -0.055982087 -0.018094715 0.008492126 -0.0336626 -0.056041542
0.09856048 -0.09983352 -0.08835374 -0.00096384384 -0.06562104 0.2171608 0.18169379 0.13168742
0.009997558 -0.04242712 -0.06899651 0.02342905 -0.027022777 0.16562273 -0.042820815 0.0037919886
-0.12380542 0.18369515 -0.078433305 -0.088140965 0.016113104 0.11309358 0.058160853 0.227632
-0.16067778 0.004185969 0.038196336 -0.034774102 -0.042788148 -0.0355009 0.26791748 -0.09290817
-0.052596424 -0.110797144 -0.06421835 -0.00015505393 0.19715728 0.022844497 0.014525361 0.12210871
-0.042672433 0.12153565 0.055819534 -0.04951534 -0.11683745 0.14169838 -0.13561906 -0.0030828211
-0.10147581 -0.01934746 -0.08715645 -0.06562847 0.12571785 -0.07819289 -0.051854704 0.17029248
0.10836322 -0.13930674 0.24307199 0.027863987 -0.11099132 0.17822546 0.21112508 0.12572026
-0.000478282 -0.032265954 -0.09601618 0.10209253 0.20285356 -0.06679728 -0.089798555 -0.10698151
-0.086075366 -0.070019715 -0.031942796 -0.107642435 -0.005005313 -0.06827447 0.1722365 -0.005800566
-0.024337346 -0.075290434 -0.027069746 -0.001272513 0.20936766 -0.13043615 0.010705233 0.16159838
0.06404767 -0.0016045563 -0.005609571 0.01607536 -0.07530071 -0.01412359 -0.031693425 0.019531734
-0.028780071 -0.10581616 0.2006457 0.13582793 -0.038070623 0.13989215 -0.048362233 0.11290159
-0.005544105 0.11475019 0.22276124 -0.027091773 -0.11788372 -0.07287188 -0.054043017 -0.027482739
-0.020604182 -0.034996163 0.1573582 0.006766526 0.21177812 -0.07487351 -0.053198323 0.06261763
-0.023567144 0.14244886 0.17895539 -0.07590653 -0.093618706 0.037348684 0.04184535 -0.06404518
0.18816236 0.12647972 0.20325734 -0.090526536 -0.13618188 -0.12881576 -0.07489357 -0.015159018
-0.007116459 0.0005841633 -0.030342696 0.2006538 -0.09479533 0.01982233 0.086343184 -0.02533242
-0.08265344 -0.07991276 -0.062096894 -0.109752335 -0.0022544253 0.20514497 -0.009418028 0.12987763
00000000: 8bc3 3a3e 0365 2e3e 036a 5d3d 75e1 8ebd
00000010: fb2b f6bb 5c72 b1bc ff92 bfbc 9280 3bbc
00000020: b07f bcbd fbe4 353c 3b40 f8bd 6178 d03d
00000030: b79c 453e 5f9f aebd 6a2b c2bc f43a d0bd
00000040: c284 d23c b547 05be 2a55 c13b cbc7 673d
00000050: 6b83 743e f6b7 103e 5c2b c4bd 517d 51bd
00000060: 2d10 593e 4853 0c3e b2e6 fabd 4ae9 40bc
00000070: ad94 453e 1478 adbd 088e e13d d5e1 163e
00000080: 9ff8 293e bc45 b1bc 0d5c 3fbc e1d0 4ebd
00000090: e378 09bc 14f2 393e a84c 3f3e 3cc2 3cbc
000000a0: e9a4 9f3d bb5b 1abe 98a0 cf3c 93f4 603b
000000b0: a8bf 853d cf61 813b 1b0d 5bbd 6acf 66bd
000000c0: 6218 5ebd e020 573e 3cc5 003e 8d43 8e3d
000000d0: 3b76 d6bd 9c58 69bd 4c3d 2f3e a186 513d
000000e0: 069d 17be 84b3 d8bc ee64 aabc ed54 cabd
000000f0: 3424 583e bed6 51bd d2f5 813d c63c 69bd
00000100: ac4d af3a e041 6dbd 57b4 12ba 23df a1bd
00000110: 055e ffbb c3ff 1f3e 1258 27bd de07 20bd
00000120: cd7c 193e 7f11 82bd ccd6 a73b 7f0c f53d
00000130: 45be 32bd b410 683e 9c29 1b3e 2222 243e
00000140: 7bc0 443e bfbf 983b bd38 95bc 869a 24bc
00000150: 46b3 6c3e bb51 24be 6162 e0bd 8881 613c
00000160: 5fbc 5fbc 526e 42bb 7232 27bd 4e1b b33d
00000170: b256 52bd d374 93bd 63c5 e9bc 7d45 a5bd
00000180: 2e2a 59bd 6ec1 bcbd 3076 433e 794d 65bd
00000190: 5e3b 94bc 8f22 0b3c cbe1 09bd d18b 65bd
000001a0: 14da c93d 8475 ccbd cef2 b4bd 77aa 7cba
000001b0: 5364 86bd 675f 5e3e f00d 3a3e 11d9 063e
000001c0: cccc 233c 0fc8 2dbd 0b4e 8dbd 47ee bf3c
000001d0: df5e ddbc 0199 293e e164 2fbd 0383 783b
000001e0: b28d fdbd 951a 3c3e a4a1 a0bd 4083 b4bd
000001f0: a1ff 833c 9b9d e73d 133a 6e3d 5d18 693e
00000200: b788 24be 742a 893b c373 1c3d 4a6f 0ebd
00000210: a042 2fbd 6469 11bd 7b2c 893e a346 bebd
00000220: 596f 57bd 9de9 e2bd e984 83bd f995 22b9
00000230: 99e3 493e 6224 bb3c c8fb 6d3c 2214 fa3d
00000240: 4ac9 2ebd afe7 f83d 06a3 643d 99d0 4abd
00000250: 7948 efbd 6119 113e b9df 0abe 2809 4abb
00000260: 8dd2 cfbd 907e 9ebc 157f b2bd 3868 86bd
00000270: 2ebc 003e 9823 a0bd 9965 54bd 2761 2e3e
00000280: 89ed dd3d 6da6 0ebe dde7 783e 0443 e43c
00000290: 6b4f e3bd bc80 363e 2c31 583e d0bc 003e
000002a0: ecc1 fab9 4e29 04bd 22a4 c4bd e315 d13d
000002b0: d8b8 4f3e 03cd 88bd 4ee8 b7bd 1f19 dbbd
000002c0: 4848 b0bd 7f66 8fbd 73d6 02bd a373 dcbd
000002d0: 9c03 a4bb 7cd3 8bbd c45e 303e ad12 bebb
000002e0: 1d5f c7bc df31 9abd 5fc1 ddbc 73ca a6ba
000002f0: 7a64 563e 0e91 05be 0065 2f3c 0c7a 253e
00000300: 6d2b 833d fa4f d2ba 7ed0 b7bb 79b0 833c
00000310: 4237 9abd a166 67bc f7d0 01bd 0401 a03c
00000320: 2fc4 ebbc 25b6 d8bd 1176 4d3e 7a16 0b3e
00000330: f1ef 1bbd e33f 0f3e 7a17 46bd f338 e73d
00000340: 53ab b5bb 2602 eb3d 861b 643e 91ef ddbc
00000350: 056d f1bd da3d 95bd 365c 5dbd 7b23 e1bc
00000360: 1aca a8bc 2358 0fbd 8222 213e bcb9 dd3b
00000370: 5ddc 583e 4857 99bd 7ce6 59bd ac3d 803d
00000380: e20f c1bc 1dde 113e 1540 373e e274 9bbd
00000390: 2abb bfbd effa 183d 0866 2b3d 1f2a 83bd
000003a0: a2ad 403e e683 013e b122 503e fa65 b9bd
000003b0: 4373 0bbe 47e8 03be cd61 99bd 885d 78bc
000003c0: 2f31 e9bb 8922 193a 3f91 f8bc 3178 4d3e
000003d0: 0e24 c2bd 7062 a23c b2d4 b03d ef85 cfbc
000003e0: 3546 a9bd 4da9 a3bd 5059 7ebd d5c5 e0bd
000003f0: fbbe 13bb 8611 523e 134e 1abc a4fe 043e

lins.1.weight f4 [1, 256]
-0.04225974 -0.14840987 -0.032975774 0.012884021 0.023593934 -0.012961422 0.003162377 0.0050689136
-0.011951247 0.024048183 0.030445242 -0.025994655 -0.085296996 -0.0070842756 -0.003943196 -0.040807646
0.02587388 0.042780396 0.01918243 0.035519954 -0.060858786 -0.10585561 -0.018715832 -0.007053524
-0.038560577 -0.07735651 0.01008438 -0.011495133 -0.06710292 -0.018783437 -0.08431327 -0.09394833
-0.09955173 -0.00654542 0.03767215 -0.010200151 0.008915244 -0.07153859 -0.055758704 0.020881392
-0.03635561 0.0072806827 0.016736453 0.02095278 0.030737828 0.015376598 -0.010453613 0.0050376137
0.011827687 -0.11931338 -0.06633171 0.014290863 -0.0028056703 -0.045514427 -0.08054795 -4.230592e-06
0.045421835 -0.0082511045 -0.028881954 0.003626735 -0.059215963 0.016893711 0.0038867388 0.029002164
0.013519942 0.043389123 0.027680302 0.0039385725 0.027857555 -0.05486685 -0.016302796 -0.0018255766
-0.047762588 0.003471475 -0.017232547 -0.016111739 -0.0152044585 -0.10191696 -0.021679033 -0.034950167
-0.10943343 0.019280797 0.019324858 -0.008651461 -0.041586533 0.005134135 0.021518601 0.020335041
-0.027105385 0.015087848 0.016737359 -0.03403821 0.030284379 -0.026712367 0.0145988865 0.024213618
0.023997836 0.031175451 -0.064608 0.015702892 -0.031653617 0.013204358 0.014353795 -0.0006095092
-0.076669104 0.03687051 -0.021036329 0.024521366 0.01961222 -0.10268282 -0.068442546 -0.09513484
0.02969021 0.011522893 0.010992578 0.022840386 -0.032768816 -0.08335589 -0.033964984 0.07294108
9.7847624e-05 -0.058147233 0.03412134 0.045869343 0.02721492 -0.046650987 0.02065826 -0.07382203
0.03094027 0.017663324 -0.032046657 -0.0306326 0.010984041 -0.0016779674 -0.0769176 -3.4672285e-05
-0.03560138 0.032968063 -0.01443225 -4.8988353e-05 -0.039738353 0.024405744 0.028144794 -0.035589248
0.011492566 -0.04767293 0.006179167 0.01085042 -0.005620858 -0.043589924 0.039117478 0.013002349
0.013193576 0.028759047 -0.00619376 -0.03081229 -0.051948726 -0.0200365 0.013851074 -0.07219127
-0.059744626 0.028300738 -0.10700284 0.004229209 -0.014631791 -0.05585688 -0.050881173 -0.021777304
0.014318632 -0.031261805 0.024849204 -0.039253153 -0.056381214 0.019749608 0.016299754 -0.018303262
0.029822899 0.066361 -0.028908568 0.024631664 0.014581789 0.011091283 -0.0791821 -5.2062867e-05
0.029186325 -0.016516645 0.018225497 0.009880712 -0.06932148 0.0038205525 0.01913098 -0.059569772
-0.018075772 0.017572816 0.017549923 0.018802779 -0.017223883 0.027970402 0.0073575727 0.033232886
-0.007785397 0.041232146 -0.085133396 -0.09660699 -0.0059420955 -0.024493672 -0.024300331 -0.03922551
0.00783573 -0.029951189 -0.11591839 0.015669703 0.0057990164 -0.002498301 -0.05662435 0.010311134
0.024792993 -0.032478917 -0.081278816 0.0017136007 -0.083878905 0.0028079543 -0.00062988006 0.022199372
0.022203123 -0.06012157 -0.04311104 -0.014751662 -0.0034843087 0.04420039 0.038227897 0.031644024
-0.05973092 -0.03232016 -0.068972886 0.007888319 0.020257905 0.033917833 0.0009291889 0.008421895
0.0198094 0.0013773377 0.018671963 -0.09583277 0.012338405 0.010968513 -0.050598767 0.021005377
-0.0027257788 -0.008347628 0.022795472 0.039374735 0.022809872 -0.102939986 0.00302341 -0.052583322
00000000: 8d18 2dbd c2f8 17be 9b11 07bd 8017 533c
00000010: 1148 c13c 255c 54bc e23f 4f3b 2119 a63b
00000020: 2acf 43bc b200 c53c 4d68 f93c bef2 d4bc
00000030: 31b0 aebd 3623 e8bb ed35 81bb eb25 27bd
00000040: 76f5 d33c 7f3a 2f3d 7924 9d3c 5f7d 113d
00000050: 1047 79bd d3ca d8bd f251 99bc 3f21 e7bb
00000060: b2f1 1dbd 176d 9ebd f538 253c 1556 3cbc
00000070: 416d 89bd b9df 99bc 70ac acbd fb67 c0bd
00000080: c7e1 cbbd f67a d6bb 1d4e 1a3d 891e 27bc
00000090: 3e11 123c d382 92bd 3d63 64bd 740f ab3c
000000a0: 9fe9 14bd cb92 ee3b e31a 893c 2aa5 ab3c
000000b0: e6cd fb3c 20ee 7b3c a145 2bbc 9112 a53b
000000c0: eac8 413c 935a f4bd ebd8 87bd 3924 6a3c
000000d0: 56df 37bb 566d 3abd 53f6 a4bd 82f4 8db6
000000e0: 3f0c 3a3d a42f 07bc d999 ecbc 84ae 6d3b
000000f0: 708c 72bd ae64 8a3c a8b8 7e3b f295 ed3c
00000100: bf82 5d3c cbb8 313d cdc1 e23c 240f 813b
00000110: 8735 e43c 10bc 60bd 718d 85bc 3048 efba
00000120: b4a2 43bd b081 633b 452b 8dbc c4fc 83bc
00000130: 1f1c 79bc d7b9 d0bd 3a98 b1bc e827 0fbd
00000140: a21e e0bd c3f2 9d3c 2a4f 9e3c dcbe 0dbc
00000150: a456 2abd 3f3c a83b c747 b03c ac95 a63c
00000160: 1d0c debc 0533 773c c91c 893c a66b 0bbd
00000170: f216 f83c e5d3 dabc 2b30 6f3c a35b c63c
00000180: 1c97 c43c a963 ff3c 3351 84bd 5aa3 803c
00000190: 39a7 01bd 1757 583c 2e2c 6b3c 78c7 1fba
000001a0: b104 9dbd 8805 173d 6154 acbc 08e1 c83c
000001b0: cea9 a03c 5f4b d2bd 9b2b 8cbd 0ed6 c2bd
000001c0: e238 f33c 84ca 3c3c 371a 343c c31b bb3c
000001d0: 9838 06bd 7eb6 aabd de1e 0bbd 2262 953d
000001e0: 8b33 cd38 cb2b 6ebd d1c2 0b3d 7ee1 3b3d
000001f0: d3f1 de3c 1b15 3fbd 833b a93c 0130 97bd
00000200: 7376 fd3c adb2 903c 5b43 03bd 38f1 fabc
00000210: 68f6 333c 3eef dbba fa86 9dbd 156d 11b8
00000220: c1d2 11bd 8509 073d 3e75 6cbc d878 4db8
00000230: afc4 22bd 8eee c73c e98f e63c 08c6 11bd
00000240: 514b 3c3c b144 43bd 9c7a ca3b f6c5 313c
00000250: 2d2f b8bb 598b 32bd a639 203d ce07 553c
00000260: de29 583c 1898 eb3c 06f5 cabb 0e6a fcbc
00000270: 30c8 54bd 9623 a4bc 9def 623c 04d9 93bd
00000280: c8b6 74bd f3d6 e73c 4e24 dbbd 2d95 8a3b
00000290: 2eba 6fbc 2fca 64bd c768 50bd 5166 b2bc
000002a0: b298 6a3c 610c 00bd 8f90 cb3c eac7 20bd
000002b0: fdef 66bd eec9 a13c 1087 853c b9f0 95bc
000002c0: 274f f43c 47e8 873d a9d1 ecbc 58c8 c93c
000002d0: 75e8 6e3c 36b8 353c 3a2a a2bd 145e 5ab8
000002e0: 2918 ef3c ea4d 87bc a34d 953c b6e2 213c
000002f0: 6cf8 8dbd 3c62 7a3b 93b8 9c3c 6fff 73bd
00000300: a413 94bc def4 8f3c dbc4 8f3c 4908 9a3c
00000310: 1a19 8dbc 2f22 e53c cb17 f13b 351f 083d
00000320: a51c ffbb 0ae3 283d 6b5a aebd e3d9 c5bd
00000330: e9b5 c2bb f4a6 c8bc 7d11 c7bc eeaa 20bd
00000340: 6f61 003c 325c f5bc 9f66 edbd c05d 803c
00000350: ad05 be3b 89ba 23bb efee 67bd 08f0 283c
00000360: ad1a cb3c 9d08 05bd 8275 a6bd e69a e03a
00000370: b4c8 abbd a805 383b 891e 25ba 75db b53c
00000380: 53e3 b53c 0942 76bd 3495 30bd f4b0 71bc
00000390: 0059 64bb 780b 353d db94 1c3d 2a9d 013d
000003a0: 69a8 74bd 2562 04bd a841 8dbd 023e 013c
000003b0: e8f3 a53c 6ded 0a3d d094 733a fdfb 093c
000003c0: 5347 a23c c987 b43a f2f5 983c f943 c4bd
000003d0: 0527 4a3c 47b5 333c a740 4fbd 7813 ac3c
000003e0: fba2 32bb 7dc4 08bc 92bd ba3c 6747 213d
000003f0: c5db ba3c 33d2 d2bd 6724 463b 9c61 57bd
